…
    "    # Now you can use 'ans' with its new shape\n",
    "    print(ans.shape)\n",
    "else:\n",
    "    print(\"The 'ans' list is empty. Make sure to populate it with data.\")"
   ]
  },
  {
   "cell_type": "code",
   "execution_count": 8,
   "metadata": {},
   "outputs": [
    {
     "name": "stdout",
     "output_type": "stream",
     "text": [
      "Model: \"sequential\"\n",
      "_________________________________________________________________\n",
      " Layer (type)                Output Shape              Param #   \n",
      "=================================================================\n",
      " conv2d (Conv2D)             (None, 128, 128, 32)      416       \n",
      "                                                                 \n",
      " conv2d_1 (Conv2D)           (None, 128, 128, 32)      4128      \n",
      "                                                                 \n",
      " batch_normalization (BatchN  (None, 128, 128, 32)     128       \n",
      " ormalization)                                                   \n",
      "                                                                 \n",
      " max_pooling2d (MaxPooling2D  (None, 64, 64, 32)       0         \n",
      " )                                                               \n",
      "                                                                 \n",
      " dropout (Dropout)           (None, 64, 64, 32)        0         \n",
      "                                                                 \n",
      " conv2d_2 (Conv2D)           (None, 64, 64, 64)        8256      \n",
      "                                                                 \n",
      " conv2d_3 (Conv2D)           (None, 64, 64, 64)        16448     \n",
      "                                                                 \n",
      " batch_normalization_1 (Batc  (None, 64, 64, 64)       256       \n",
      " hNormalization)                                                 \n",
      "                                                                 \n",
      " max_pooling2d_1 (MaxPooling  (None, 32, 32, 64)       0         \n",
      " 2D)                                                             \n",
      "                                                                 \n",
      " dropout_1 (Dropout)         (None, 32, 32, 64)        0         \n",
      "                                                                 \n",
      " flatten (Flatten)           (None, 65536)             0         \n",
      "                                                                 \n",
      " dense (Dense)               (None, 512)               33554944  \n",
      "                                                                 \n",
      " dropout_2 (Dropout)         (None, 512)               0         \n",
      "                                                                 \n",
      " dense_1 (Dense)             (None, 2)                 1026      \n",
      "                                                                 \n",
      "=================================================================\n",
      "Total params: 33,585,602\n",
      "Trainable params: 33,585,410\n",
      "Non-trainable params: 192\n",
      "_________________________________________________________________\n",
      "None\n"
     ]
    }
   ],
   "source": [
…
